backend/sentiment_model.pth (torch, 810601 bytes, 3 tensors)

embedding.weight f4 [4039, 50]
0	0x3f1def76	0.61693513
1	0xbfd76477	-1.6827534
2	0x3ee3da1e	0.44502348
3	0x3fdeb982	1.7400362
4	0xbf0e331e	-0.5554675
5	0x3f082991	0.53188425
6	0x3e7dd485	0.24788101
7	0x3f2d41d6	0.6767858
8	0x3ef13879	0.47113398
9	0xbf92931b	-1.1451143
10	0xbfe31594	-1.774096
11	0xbec081c9	-0.37599018
12	0x3f278a5d	0.654455
13	0x40048041	2.070328
14	0x3f1918fa	0.59803736
15	0x3f8e9d1d	1.1141697
16	0x3f83ac91	1.0287038
17	0x3f8f02db	1.1172746
18	0x3f1c7b7f	0.6112594
19	0xbd53f64b	-0.051748555
20	0xbccbbaf8	-0.024869427
21	0x3f0c8c99	0.54902035
22	0x3f0bcd07	0.5460972
23	0xbf47fbf1	-0.7811881
24	0xc019facd	-2.4059327
25	0x3f819dfc	1.0126338
26	0xbe07756c	-0.13228387
27	0x3e55836c	0.20850915
28	0x3ddb3948	0.10704285
29	0xbf849142	-1.0356829
30	0x3e5bee04	0.21477515
31	0x3e9e2bb3	0.30892715
32	0x3f119d61	0.56880766
33	0x3f8063e8	1.0030489
34	0x3f579ba9	0.84221894
35	0x3e9be410	0.30447435
36	0xbd210f79	-0.039321396
37	0xbe747820	-0.23873949
38	0x3f31a2cd	0.6938904
39	0xbfb8a6f1	-1.4425946
40	0x3fed45da	1.8536942
41	0xbd77723a	-0.06041167
42	0x3dee34f6	0.11631195
43	0x3ee2d86b	0.4430574
44	0xbf738c1f	-0.9513568
45	0xbe5daec6	-0.21648702
46	0xbf4947d5	-0.7862523
47	0x3fcf2be3	1.6185268
48	0x3f5cd7f6	0.8626703
49	0xbe8ee8aa	-0.27911884
50	0xbe584790	-0.21121049
51	0xbf56f02a	-0.8396021
52	0xbfe53120	-1.7905617
53	0x3fb98338	1.449317
54	0xbe5c8e3c	-0.21538633
55	0x3e4d60cc	0.20056456
56	0xbf032101	-0.51222235
57	0x3f915fe7	1.1357392
58	0xbf47e8b9	-0.7808948
59	0x3ef03398	0.46914363
60	0x3e1ba561	0.15199806
61	0x3f2a2375	0.66460353
62	0xbfb75cfb	-1.432525
63	0x3f494df8	0.78634596
64	0xbf99beaa	-1.2011311
65	0x3f731a0d	0.94961625
66	0xbf44b2ed	-0.7683552
67	0x3f870240	1.0547562
68	0x3ea2f57a	0.3182791
69	0x3eba62ef	0.36403605
70	0xbd909896	-0.070603535
71	0x3fbe5886	1.4870765
72	0xbfc8cac0	-1.5686874
73	0x3fbc1101	1.4692689
74	0x3e840c4c	0.25790632
75	0xbf921267	-1.1411866
76	0xbf3ea724	-0.74473786
77	0x3fa16e9c	1.261188
78	0x3f40d98a	0.7533194
79	0xbd493190	-0.049119532
80	0xbf5ea9cc	-0.8697784
81	0x3e806be3	0.2508231
82	0xbf5703e0	-0.8399029
83	0xbeb4065d	-0.35161105
84	0x3e08d1c0	0.13361263
85	0x3eb5648a	0.35428268
86	0xbf5c2115	-0.8598798
87	0xc004d153	-2.0752761
88	0x3fa422b5	1.2823092
89	0xbf12707d	-0.57202893
90	0x3f8e2664	1.1105466
91	0xbe91667b	-0.283985
92	0xbe079004	-0.13238531
93	0x3f56a7fc	0.83850074
94	0x3f81db12	1.014498
95	0xbdf5c9cd	-0.12001381
96	0xbe67bd10	-0.22630715
97	0xbe22d495	-0.15901406
98	0xbfcb71af	-1.5894068
99	0xbf64d427	-0.8938622
100	0xbf03fc54	-0.515569
101	0x3f3e28cc	0.74281
102	0xbf7fbcc8	-0.9989743
103	0x3f96aeb1	1.1772062
104	0x3e35a993	0.17740469
105	0x3bd3a1aa	0.006458481
106	0x3f32c5b9	0.6983295
107	0xbf807b45	-1.0037619
108	0x3fad3ea4	1.3534741
109	0x3fafb01a	1.3725617
110	0xbed94492	-0.42435127
111	0xbf86e2fc	-1.053802
112	0xbefcd34c	-0.49379957
113	0x3f0e6420	0.5562153
114	0xbf2edf44	-0.68309426
115	0xbcc1dcbb	-0.023664823
116	0xbea99228	-0.3311932
117	0x3e857a95	0.26070085
118	0x3fad1751	1.3522741
119	0x3e5eadcd	0.21745987
120	0x3ff4e2bc	1.9131694
121	0x3ea59043	0.32336625
122	0x3f763bbf	0.96184915
123	0x3eb88f5b	0.36046872
124	0xbf23d755	-0.64000446
125	0xbfcc0903	-1.594025
126	0x3ebe345b	0.3714932
127	0x3f0d53dd	0.5520609
128	0xbf395a3c	-0.7240331
129	0xbfcdc6b8	-1.6076269
130	0xbf99c12d	-1.2012078
131	0x3ec4ea37	0.38459942
132	0xbf79c529	-0.9756647
133	0x3e8f3bd1	0.27975324
134	0xbec82f9c	-0.39098823
135	0x401edfda	2.4824128
136	0xbfd13fc8	-1.634759
137	0xbda57e7b	-0.08080765
138	0x3e7260db	0.2366976
139	0xbec94c66	-0.393161
140	0xbfc80a3d	-1.5628124
141	0xbf0060be	-0.50147617
142	0x3feba038	1.840827
143	0xbf487140	-0.78297806
144	0x3f6e9c31	0.9320708
145	0xbfa0484a	-1.2522061
146	0xbdbe265d	-0.09284661
147	0x3e4c813a	0.19971171
148	0xbf8b3074	-1.0874162
149	0x3fc0a7bc	1.5051188
150	0x3f0641f2	0.52444375
151	0xbf826961	-1.0188409
152	0xbe300fbe	-0.17193505
153	0x3e4c6987	0.1996213
154	0x3f17b881	0.59265906
155	0x3faa8b04	1.3323674
156	0x3fa62d9c	1.2982669
157	0xbef55d2e	-0.47922653
158	0x3f99273b	1.1965097
159	0x3f987147	1.190957
160	0x40097f56	2.148397
161	0xbf73c7fc	-0.95227027
162	0xbf1d6171	-0.6147681
163	0xbf699113	-0.9123699
164	0x3d834d86	0.06411271
165	0x3ea21aa7	0.3166096
166	0x3f8c6447	1.0968102
167	0x3f80c7b7	1.0060948
168	0xbe140954	-0.14456683
169	0x3f7acb16	0.97966135
170	0xbf05001d	-0.519533
171	0x400c7a0d	2.1949494
172	0x3e9f3e5e	0.3110227
173	0x3fa82d72	1.3138869
174	0xbf58d269	-0.8469606
175	0xbeb6f229	-0.3573163
176	0xbe3dd82c	-0.18539494
177	0x3fb043ae	1.3770654
178	0xbf87880d	-1.0588394
179	0x3f147032	0.57983696
180	0x3f4c8424	0.7988913
181	0xbf4be04b	-0.7963912
182	0xbde08c6d	-0.10964284
183	0x3f01b4a3	0.50666255
184	0x3f455a62	0.7709104
185	0x3e64f32e	0.2235839
186	0x3fabae1e	1.3412511
187	0x3fc1bf36	1.5136478
188	0xbea55425	-0.3229076
189	0x3f87f2c4	1.0620961
190	0x3f84403c	1.0332103
191	0x3f9c7d45	1.2225729
192	0x3fc4e6e1	1.5382959
193	0x3f8cc2c7	1.0996941
194	0xbf60faff	-0.8788299
195	0xbf9aaee3	-1.2084621
196	0x3d9712e7	0.07376652
197	0x3f396203	0.7241518
198	0x3e3e995e	0.18613192
199	0x3dd4fcee	0.10399805
200	0x3f0a098f	0.53920835
201	0x3ddc83bb	0.10767313
202	0xbfd43ce3	-1.6581081
203	0xbf17af28	-0.5925164
204	0x3e7db530	0.24776149
205	0xc02e5852	-2.7241406
206	0x3f9f47b4	1.2443757
207	0x3fa52d45	1.290444
208	0xc0011d6a	-2.0174203
209	0x3f712530	0.9419737
210	0x3f253c5c	0.64545226
211	0xbfb48341	-1.4102556
212	0xbf26ad91	-0.6510859
213	0xbb6ffdc0	-0.0036619753
214	0xbdc9f0e1	-0.09860397
215	0xbf71c9b7	-0.9444842
216	0x3cf1087d	0.029422993
217	0x3f845b04	1.0340276
218	0x3fa9d5ea	1.3268406
219	0x3e89e73d	0.26934233
220	0x3f0a0aae	0.53922546
221	0x3eceb816	0.4037482
222	0x3f556602	0.83358777
223	0xbe691b8c	-0.22764415
224	0xbf4ec6c8	-0.80772066
225	0x3f094e9c	0.53635573
226	0xbf1bd29c	-0.6086824
227	0xc01e9852	-2.478047
228	0xbec0404d	-0.37549058
229	0xbfd86b7b	-1.69078
230	0xbf82f56f	-1.023115
231	0x3d191b00	0.037379265
232	0xbdc16865	-0.0944374
233	0xbfeb9a86	-1.8406532
234	0xbea1715a	-0.31531793
235	0x3f92d76c	1.1471992
236	0x3fce778e	1.6130235
237	0xbe7aec5b	-0.24504225
238	0x3f435b33	0.76311034
239	0x400bf596	2.1868644
240	0xbf7cde66	-0.98776853
241	0xbf9e6cd4	-1.2376962
242	0xbe041f31	-0.12902524
243	0x3f8b321e	1.087467
244	0xbe2cce1b	-0.16875498
245	0xbf931d42	-1.1493304
246	0xbd6e5590	-0.058187068
247	0x3f69c2a0	0.913126
248	0xbfbeaf26	-1.4897201
249	0x3fd2addc	1.6459308
250	0xbf876f8e	-1.0580919
251	0xbe852060	-0.26001263
252	0xbf055174	-0.5207741
253	0x3eed7086	0.4637491
254	0x4020d0df	2.5127485
255	0xbf53387a	-0.8250805

fc.weight f4 [3, 50]
0	0xbf29d481	-0.6633988
1	0x3dd9aaa6	0.10628252
2	0x3e6b2d9f	0.22966622
3	0xbeb5d846	-0.35516566
4	0xbf2eb14f	-0.682393
5	0x3f03a118	0.51417685
6	0x3f19a0d4	0.6001103
7	0xbec79c6d	-0.3898653
8	0xbf4a945a	-0.79132617
9	0xbcf88efb	-0.030341616
10	0xbec75af8	-0.3893659
11	0x3d2d8572	0.04236359
12	0x3f40672f	0.75157446
13	0x3dbe0aa1	0.09279371
14	0x3e82e5b8	0.25565886
15	0xbd8b0927	-0.06788855
16	0xbf2a40df	-0.66505235
17	0x3df743ce	0.120734796
18	0x3f5dd94e	0.86659706
19	0xc00b5b7f	-2.1774595
20	0x3f1b53d4	0.60674787
21	0xbe4ec0ba	-0.20190707
22	0xbec4457a	-0.38334256
23	0x3e1bcb49	0.15214266
24	0xbe176d4d	-0.14787789
25	0xbd86c0f4	-0.06579772
26	0x3fa128e6	1.2590606
27	0xbdd49547	-0.10380035
28	0xbf509d57	-0.8149008
29	0xbeb206aa	-0.3477071
30	0x3e7cf700	0.24703598
31	0xbf77c54f	-0.96785444
32	0x3e8dfed8	0.27733493
33	0xbe8c5444	-0.2740804
34	0x3e99fdab	0.30076346
35	0xbf0492c9	-0.51786476
36	0xbf50fa4b	-0.81631917
37	0xbf859ebb	-1.0439066
38	0xbe1efa72	-0.15525225
39	0xbe2c749b	-0.16841356
40	0xbe9be164	-0.30445397
41	0xbf8f251c	-1.11832
42	0xbf94d106	-1.1626289
43	0xbf997d70	-1.1991405
44	0x3ea52882	0.32257468
45	0xbf802e13	-1.0014061
46	0x3f116ba5	0.5680488
47	0xbe805726	-0.2506649
48	0xbe5f00b5	-0.21777613
49	0x3f3c6b34	0.7360108
50	0x3ef99143	0.48743638
51	0xbe89f71c	-0.26946342
52	0xbf590195	-0.8476804
53	0xbd9c631d	-0.07636092
54	0x3f4ed13c	0.80788016
55	0x3f075108	0.5285802
56	0xbf8d2e96	-1.1029842
57	0x3ea44125	0.3208095
58	0xbd2fc925	-0.042916436
59	0xbea82cab	-0.3284658
60	0x3e55be23	0.20873313
61	0x3f35c0d4	0.7099736
62	0x3e9c04ca	0.30472404
63	0x3df06430	0.11737859
64	0x3f28020f	0.6562814
65	0x3e5a1cc1	0.21300031
66	0x3d129a84	0.03579189
67	0x3ec4d7ea	0.3844598
68	0x3cb85b3b	0.02250444
69	0x3e61ffe1	0.22070266
70	0xbfc77d47	-1.5585107
71	0xbf31a6ad	-0.6939495
72	0x3f0f83b6	0.5606035
73	0x3f10a4aa	0.5650126
74	0x3e3246b2	0.1740978
75	0xbe73f826	-0.2382513
76	0x3f3cb3f4	0.73712087
77	0x3f662a40	0.8990822
78	0x3fb59eab	1.4189047
79	0xbde96854	-0.11396852
80	0xbfaf346c	-1.3687873
81	0x3f548f16	0.8303083
82	0x3e8a6be0	0.27035427
83	0xbeccf86a	-0.40033275
84	0xbf0c97b8	-0.54919004
85	0x3f1dbb70	0.6161413
86	0x3f93f138	1.1557989
87	0x3f8bf068	1.0932741
88	0xbed65c1b	-0.41867146
89	0xbe508845	-0.20364483
90	0x3e74de0b	0.23912828
91	0x3fb4c6db	1.4123186
92	0x3f78b01d	0.9714373
93	0xbd28211d	-0.041047204
94	0xbe7ac372	-0.24488619
95	0x3fad6a59	1.354808
96	0xbed61f33	-0.41820678
97	0xbe843818	-0.25824046
98	0x3eeb64e0	0.459754
99	0xbf2a1c2a	-0.66449225
100	0x3dacf928	0.0844596
101	0x3ea4ecc3	0.32211885
102	0x3f280680	0.6563492
103	0x3e17101f	0.14752243
104	0xbec6a06d	-0.3879427
105	0xbf48ca50	-0.78433704
106	0x3f3c7368	0.73613596
107	0xbe8ad278	-0.271137
108	0x3f5abcda	0.85444415
109	0x3eaf0ec8	0.34190965
110	0x3e62c75a	0.22146359
111	0xbf42e854	-0.76135755
112	0xbf5a1bc7	-0.85198635
113	0xbe89c3e2	-0.2690726
114	0xbf54884c	-0.8302047
115	0xbee880d2	-0.45410782
116	0x3e601c67	0.21885835
117	0xbecd6726	-0.4011776
118	0xbf58b405	-0.8464969
119	0x3fc474e5	1.5348173
120	0x3f5d4c27	0.86444324
121	0x3f30d5fd	0.6907652
122	0xbef07156	-0.46961468
123	0xbed1326f	-0.4085879
124	0xbe812ad2	-0.25227982
125	0x3f094139	0.53615147
126	0xbfc0ab3f	-1.505226
127	0xbf4e1185	-0.8049548
128	0xbf67d2d2	-0.9055606
129	0x3f0de9e0	0.5543499
130	0x3f86ce10	1.0531635
131	0xbe811ad8	-0.25215793
132	0xbf185c64	-0.59515977
133	0x3ef6cf9c	0.48205268
134	0x3ebd1092	0.36926705
135	0xbe988f7e	-0.29796976
136	0xbf5eeb62	-0.87077916
137	0xbde84bb2	-0.11342563
138	0x3ee03b34	0.43795168
139	0x3ebadbd9	0.36495855
140	0x3d3caa68	0.04606095
141	0xbf27e41a	-0.6558243
142	0xbd5468f5	-0.051857907
143	0x3f4544b1	0.7705794
144	0xbda1c3c3	-0.07898667
145	0xbf240d34	-0.64082646
146	0x3d074a36	0.033029757
147	0x3eab2299	0.33424833
148	0xbf11ce3e	-0.56955326
149	0x3e9d3998	0.30708003

fc.bias f4 [3]
0	0xbcdbd5f2	-0.026835416
1	0x3c94bf26	0.018157553
2	0x3d6f1ca4	0.058376923
