backend/sentiment_model.pth (torch, 810601 bytes, 3 tensors)

embedding.weight f4 [4039, 50]
000000 cb 08 9d bf c6 2f b7 bd e8 a2 e4 bf 13 6b 55 3f
       -1.2268308 -0.08944659 -1.7862215 0.8336651
000010 b3 c4 c6 be 7b 23 a6 3f d2 a6 06 3f ee c8 f5 bc
       -0.38821945 1.2979578 0.525983 -0.030003037
000020 4c 02 c2 3f 27 9d 62 3f ff ae 2a bf 74 4f d0 3f
       1.5156951 0.88521045 -0.6667327 1.6274247
000030 4d 50 44 3e 40 20 aa bf 8f d7 d2 3b 35 4c a3 3d
       0.19171257 -1.3291092 0.006434388 0.0797352
000040 3e 11 23 3f 3e 2f 46 3f 81 b3 da 3f e1 99 81 bf
       0.63698184 0.77415836 1.708603 -1.0125085
000050 db f2 73 3f b0 67 b0 bf 80 98 61 be cf 62 7a 3f
       0.95292443 -1.3781643 -0.2203083 0.9780702
000060 c7 d6 e7 3f 20 7a 75 3f e5 0f f8 3f a5 00 4c c0
       1.811242 0.9588947 1.9379851 -3.1875393
000070 ca 60 04 3f 02 c2 1a c0 7e 52 e0 be 4f b0 57 bf
       0.5171019 -2.4180913 -0.43812937 -0.842534
000080 00 25 a9 bc 0a c2 fb be 19 46 a7 3f a6 3e be bf
       -0.020647526 -0.49171478 1.3068267 -1.4862869
000090 66 a2 9d 3f e8 e5 01 c0 45 87 42 be 9a 9e 21 40
       1.2315185 -2.0296574 -0.18996914 2.5253053
0000a0 74 5e a7 3e d8 cf e7 bd 2a 75 81 3f 12 10 17 40
       0.3268925 -0.1131894 1.0113881 2.3603559
0000b0 a2 1f 1f bf 06 63 8b 3d 40 29 fd 3e 33 62 f6 bc
       -0.6215764 0.068059966 0.49445534 -0.030076122
0000c0 90 b1 65 bf 47 05 5f bf 69 a5 89 bd 65 69 0e 3f
       -0.89724064 -0.8711743 -0.067210026 0.5562957
0000d0 de 47 c2 3f 1d a0 62 bf 79 a0 81 bf 98 a9 fd bd
       1.5178182 -0.88525563 -1.0127097 -0.12385863
0000e0 eb c0 24 bf a1 07 dd 3f 3f 60 cc 3e 9f 41 40 3f
       -0.6435687 1.7267953 0.3991718 0.7510013
0000f0 e5 49 b6 3c 26 8e 9b 3f 58 ca 3c bf ec 7e df be
       0.022252033 1.2152755 -0.7374625 -0.4365152
000100 65 d2 29 bf 92 5f a4 3e e1 f0 b8 bf f9 52 92 3f
       -0.6633666 0.32104164 -1.444851 1.1431571
000110 2c d5 bb 3e 57 13 30 bf bf 29 62 3f fa 75 29 3e
       0.36686075 -0.6877951 0.8834495 0.1654891
000120 9a f1 03 bf e4 f6 13 bf 5b 1e d9 3f dc ee 8d bd
       -0.5154053 -0.577986 1.6962389 -0.069303244
000130 43 a3 df be 89 f3 28 bf 80 60 28 be 81 33 3f bf
       -0.43679246 -0.65996605 -0.16443062 -0.74687964
000140 93 a0 08 be 19 ef 9a 3f ee 15 3b bf 6d bb 0c 3f
       -0.13342504 1.2104217 -0.7308034 0.5497349
000150 c6 e9 8a be 40 8c 8d 3f 98 e2 0f 40 2d e6 83 be
       -0.2713148 1.1058426 2.2482052 -0.25761548
000160 f9 c9 1a be 3b 72 0c 3e 36 28 5e 3f 5a 5d 7a 3f
       -0.15116109 0.1371545 0.8678011 0.97798693
000170 0e 4b a0 3f 95 4c b1 be f8 97 c7 bf fc 1b 08 3f
       1.2522905 -0.3462874 -1.5593252 0.531677
000180 ba 07 93 bf ee 61 7e 3e 84 7d 70 3f ff 07 0c 3f
       -1.1486733 0.24842045 0.9394152 0.546997
000190 9f 61 e5 be 8f 0b 8d 3e 62 ce e3 be 74 44 2a bf
       -0.4480104 0.2754788 -0.44493395 -0.665107
0001a0 0d cc 1a 3c 38 f9 b4 3d 51 7f 43 3f 33 53 76 3f
       0.009448064 0.08836597 0.76366144 0.962207
0001b0 eb 21 ad be fa c4 78 3f 17 af 87 3e 1a 69 81 3f
       -0.3381494 0.9717556 0.2650077 1.01102
0001c0 57 05 5d bf 23 97 a0 bf ea 5c ad bf ad ec 56 be
       -0.8633627 -1.2546123 -1.354398 -0.20988722
0001d0 ef 66 9b be 94 ba bd 3f 6e 01 ec be b0 dd 5d 3f
       -0.3035197 1.4822564 -0.4609484 0.86666393
0001e0 20 d5 f6 bf 04 30 fa bf 16 80 16 bf cd 7c 7c bf
       -1.928379 -1.9545903 -0.58789194 -0.9862793
0001f0 22 c9 40 3d b3 d3 5f 3f 10 95 a4 bf 1f bf b7 3e
       0.047066815 0.874324 -1.285799 0.35888
000200 8d 28 e7 bf 01 0f aa 3f c5 df 4b 3f 4f 04 c7 bd
       -1.805925 1.3285829 0.7963832 -0.09717619
000210 a9 8c c6 be 32 27 cc bc cf ce fb be 62 a9 24 bf
       -0.3877919 -0.024921034 -0.4918122 -0.6432096
000220 14 0a a7 bf 0b 51 fa 3f 31 12 4d 3f d9 24 59 bf
       -1.3049951 1.9555982 0.8010588 -0.8482185
000230 f0 19 7e 3f db 55 fb be 6a 72 e7 be f4 39 96 bf
       0.9925833 -0.4908894 -0.45204479 -1.1736436
000240 b6 dc 2b 3f f1 98 ca 3f 4c d1 22 bf cb 79 0a c0
       0.67133653 1.5827924 -0.6360061 -2.1636837
000250 3d cd ab 3e 48 a6 2c 3f a8 f5 6d 3f 77 f6 d7 3f
       0.33555022 0.67441225 0.92952967 1.687209
000260 6e 00 13 c0 97 ab 92 3f b6 1e 10 bf 95 6c 6d bf
       -2.2969012 1.1458615 -0.5629686 -0.9274381
000270 ad 55 9e 3f 9f 0f e1 bd 70 5e 07 be e0 d9 56 3f
       1.2369896 -0.109893076 -0.13219619 0.839262
000280 33 8e 9a bf ef d8 0f bf 16 fc de 3f aa 69 64 be
       -1.2074646 -0.5619039 1.742068 -0.22305933
000290 a5 6d fb 3d 10 b8 2b bf 04 82 62 bf f4 47 18 c0
       0.122767724 -0.6707773 -0.8847964 -2.3793917
0002a0 4e b6 2e 40 a8 ba ab be 80 a4 cd 3e 3b b2 cd 3e
       2.729877 -0.33540845 0.40164566 0.40175042
0002b0 1e b7 28 3f ad 04 52 be 5f 77 a2 be 2d bd 62 bb
       0.65904415 -0.20509596 -0.31731698 -0.003459762
0002c0 ef d8 e1 be 18 54 09 3f fb 2e 4a 3e d1 80 a2 3f
       -0.4411082 0.5364394 0.19744484 1.2695562
0002d0 3c 91 ec 3d ff cb bb bf 36 17 4b bf 2f 19 95 3f
       0.11551139 -1.467163 -0.7933229 1.164831
0002e0 01 91 cc be fb d6 d3 bf 0c ef 92 3f f2 1b 32 bf
       -0.3995438 -1.6549982 1.1479201 -0.6957389
0002f0 a1 0f 5e 3f 1d 7d 0f bf dc e9 e1 3a ba 35 86 3e
       0.867426 -0.5605028 0.0017235833 0.26212865
000300 f0 8e fd 3d 2a ba c0 bf 83 1a af be 3f fc 68 bf
       0.12380779 -1.5056813 -0.34199914 -0.91009897
000310 ee f3 dc be 20 28 c6 bf e9 05 d1 be 66 fa 99 be
       -0.43154854 -1.5480995 -0.40824822 -0.3007385
000320 3b 69 4e bf 6b 7d 85 3f d9 26 a7 bf 17 ba 94 bf
       -0.8062932 1.04289 -1.305873 -1.161929
000330 64 0e 87 3d 45 02 3b 3f e5 6a bf bf 47 96 a8 bf
       0.06594542 0.7305034 -1.4954497 -1.3170861
000340 d3 7c 17 bf 76 1a ae 3f 6b 66 fd 3e cc e4 dc 3d
       -0.5917484 1.3601825 0.494922 0.10785827
000350 40 4a cb 3f 2b 2e 77 3e 7e 43 4d c0 65 c5 80 3f
       1.5882034 0.24138705 -3.2072444 1.006024
000360 10 f3 9d bf aa 22 53 bf 71 2a b7 3f c5 2a 5e 3f
       -1.2339802 -0.8247477 1.4309827 0.8678401
000370 80 a2 f9 3d 81 4f 37 c0 29 06 1f bf 69 8f bf 3f
       0.121891975 -2.8642275 -0.62118775 1.496564
000380 76 36 bd 3f cd 7c 54 3f af c0 90 3f 9a 21 ec bc
       1.4782245 0.8300293 1.1308802 -0.028824616
000390 73 cf 1b 40 c8 ce e2 bd ea 69 ee bf 03 23 36 3f
       2.4345367 -0.11074597 -1.8626072 0.71147174
0003a0 d8 33 17 bd 1c 7b 21 be ef e0 1b 40 7e b8 35 3f
       -0.036914676 -0.15769619 2.4356039 0.7098464
0003b0 e1 8e 1a bf 05 1c a7 3f 7d fa bd bf df 6d ea be
       -0.60374266 1.3055426 -1.4842068 -0.4578695
0003c0 93 58 43 3d 7e 56 80 bf e1 ed 89 be 2f d4 0a 40
       0.047691893 -1.0026395 -0.269393 2.1692007
0003d0 d9 6f ab bf ec f1 90 3e f8 08 95 3d 16 ee 05 3c
       -1.3393508 0.28309572 0.07277101 0.00817444
0003e0 2e a5 d6 3f 53 91 92 3f 14 25 af 3b b2 2b 3a bf
       1.6769159 1.14506 0.005344996 -0.72722924
0003f0 18 20 9b bf f9 d8 b4 3d 28 eb 13 40 76 57 c2 3f
       -1.2119169 0.08830447 2.3112278 1.5182941

fc.weight f4 [3, 50]
000000 49 a3 68 be 15 e7 12 c0 a6 e4 58 3d f8 42 45 bf
       -0.22718538 -2.2953541 0.05295243 -0.7705531
000010 32 cf 62 3f fa b7 40 be d6 83 9d bf 3a 18 71 bf
       0.88597405 -0.18820181 -1.2305858 -0.9417759
000020 df 26 16 3e a7 66 23 3f 72 54 74 bf 2e 11 9a 3e
       0.14663266 0.6382851 -0.95441353 0.30091232
000030 0f 74 12 bf 61 90 88 bd cd 62 7a 3f 15 c6 7f 3e
       -0.5720834 -0.06668163 0.9780701 0.24977906
000040 c4 fa c2 3d 8f 5d 68 3f 01 ea 54 be e4 2e 71 3e
       0.09520486 0.9076776 -0.2079239 0.23553044
000050 86 be 05 be d9 ec 51 3d e0 71 df 3f 78 e7 24 3e
       -0.1306096 0.051251266 1.7456627 0.16103923
000060 bf b5 00 3f 11 ed fe be c3 b8 61 be 2a e8 f6 bd
       0.5027732 -0.49790242 -0.22043137 -0.120560005
000070 9e 9e 7c 3f ae 1a 6b bd cd 5e 84 3f 25 0e 3e 3f
       0.9867953 -0.05739849 1.0341431 0.7424033
000080 92 e4 cd 3f fb 45 41 be 22 02 ca bd 4c 56 11 3f
       1.6085379 -0.18874352 -0.09863688 0.56772304
000090 ca c3 64 3b 77 37 d3 3e e5 f4 a3 3f c8 ff 89 3e
       0.0034906738 0.41253254 1.2809111 0.26952958
0000a0 b1 9b 1b bf 3a 28 97 3f 96 9c 8d be 51 e7 6d 3e
       -0.6078444 1.1809151 -0.27658528 0.23232771
0000b0 c1 6c 2b bf 48 08 25 bf 0b 09 cf 3e 76 8e 71 bf
       -0.6696282 -0.6446576 0.40436587 -0.94358003
0000c0 44 d6 c9 3e e3 8b 19 bd 8b f7 ca 3e 34 99 ba 3f
       0.39421284 -0.037486922 0.39641985 1.4578004
0000d0 d9 1d be be 40 e7 6f 3e d6 53 fe 3e 2a e8 0f 3f
       -0.37132147 0.23428059 0.49673337 0.5621363
0000e0 e8 22 ad 3e d0 a1 d5 3f c2 24 bb 3e 67 a4 38 bf
       0.33815694 1.6690006 0.3655148 -0.7212586
0000f0 aa 9e 48 3f 5c b6 45 3e 19 aa 67 bf 93 5f f4 3e
       0.783671 0.19307846 -0.90493923 0.47729167
000100 65 18 6e 3f dd 8f e1 bf 9a b9 3f bf a0 dc 95 be
       0.93005973 -1.7622029 -0.7489258 -0.29269886
000110 31 bb 65 be 80 5b 13 bf e1 77 03 3f 5c 71 8b be
       -0.22434689 -0.5756149 0.51354796 -0.27234924
000120 1f b7 6c 3e 70 8f 16 bf e2 fb 1d bd 37 ed 2a 3f
       0.2311673 -0.5881262 -0.038570292 0.6676821
000130 cb fb b0 3e ce 76 6f 3d 59 da 2d bf 77 a1 60 be
       0.34567103 0.05846291 -0.679113 -0.21936594
000140 ef 31 0a 3f 8e 18 fd be 04 c0 c6 bf ef e7 37 3f
       0.5398244 -0.49432796 -1.5527349 0.7183828
000150 0d 10 ac 3e e5 91 46 be 33 75 cd be 0f a1 23 bd
       0.33605996 -0.19391592 -0.40128478 -0.03994852
000160 19 48 98 bf ce c9 bc 3c bc 42 37 bf bd 14 eb bf
       -1.1897002 0.023045447 -0.71586204 -1.8365704
000170 87 19 e4 3e 2e 82 88 be 55 f7 c2 be a6 a3 de bf
       0.44550726 -0.2666182 -0.38079324 -1.7393692
000180 b6 9d 67 3f 6f f4 ec 3f 61 92 01 bf e2 04 04 3f
       0.9047502 1.8512095 -0.5061398 0.5156995
000190 c1 63 95 be 76 e2 25 3e 84 79 9d 3e dd 0f 14 3f
       -0.2917767 0.16199669 0.30756772 0.57836705
0001a0 97 79 9d bf 48 30 1a be 91 60 10 3f c9 ae 82 bf
       -1.2302731 -0.1505748 0.5639735 -1.020959
0001b0 45 4a a9 be 52 5f b0 3c 38 48 86 3d e7 27 d0 be
       -0.33064476 0.021529827 0.065567434 -0.40655443
0001c0 8c ed b5 3f 47 46 f9 be 3d a2 bd bf 24 ee ca 3f
       1.4213119 -0.4868643 -1.4815136 1.5853925
0001d0 7a 84 32 3f 12 00 39 bf 72 3f e4 3e 68 24 f8 3e
       0.69733393 -0.7226573 0.44579655 0.48465276
0001e0 bd 4c d6 be ab 24 de 3e 33 e2 b2 bf 86 ad 08 3f
       -0.41855422 0.4338735 -1.397528 0.53389776
0001f0 f0 ac 9b be 8e f3 49 be 35 c1 73 be 8e 09 82 be
       -0.30405378 -0.19721815 -0.23804171 -0.25397915
000200 1d 88 47 be 07 94 82 3e c3 6c 95 bf aa b1 85 3e
       -0.19485517 0.2550356 -1.1673816 0.2611211
000210 89 eb 3b 3e ed 82 32 bf e6 1b de be fd ae df be
       0.18351568 -0.69731027 -0.4338066 -0.43688193
000220 6f f1 ad 3e 9a 4d 19 be 60 7c 01 3f bc 8e 6d be
       0.33973262 -0.14971009 0.50580406 -0.2319898
000230 4e 44 8a 3f c4 86 ac 3f 4e 35 f9 be 73 08 39 3e
       1.0802095 1.3478627 -0.4867348 0.1806963
000240 f3 d6 89 3f 5a da 07 40 b7 9a 98 bf 16 ab bf bf
       1.0768722 2.1227021 -1.1922215 -1.4974086
000250 de 15 3d 3e 09 8d 00 bf
       0.18465373 -0.502152

fc.bias f4 [3]
000000 78 01 dd 3d ad ca 8d 3d 96 9f 10 3d
       0.10791296 0.06923423 0.035308443
